data.pth (torch, 16874 bytes, 6 tensors)

l1.weight f4 [8, 202]
0	0x3f93e08e	1.1552904
1	0xbc13017f	-0.008972525
2	0x3d6dd899	0.05806789
3	0x3dbe9693	0.093060635
4	0x3f95923d	1.1685253
5	0x3f244ef1	0.64182955
6	0xbf9de6de	-1.233608
7	0xbf8b68d1	-1.0891362
8	0x3f87585e	1.0573843
9	0x3ef47961	0.47748855
10	0xbf097d63	-0.5370695
11	0xbe7e1d82	-0.24815944
12	0x3f718de7	0.9435715
13	0x3f7e0a23	0.9923422
14	0xbfb47da7	-1.4100846
15	0x3f946cfd	1.159576
16	0x3f2266aa	0.634379
17	0xbe42ecf9	-0.1903571
18	0xbf488c20	-0.78338814
19	0xbe7cacb5	-0.24675258
20	0xbf1a6145	-0.6030467
21	0xbeb824dd	-0.35965624
22	0x3fa697e4	1.3015103
23	0x3f03fb1e	0.5155505
24	0x3f13aab6	0.5768236
25	0xbd86bc40	-0.065788746
26	0x3e804f2f	0.25060412
27	0x3e1853ab	0.14875667
28	0xbeff9094	-0.49914992
29	0xbe094c6c	-0.13408059
30	0x3df6a2ce	0.12042771
31	0x3f83c100	1.0293274
32	0xbf6b6d91	-0.9196406
33	0x3ee33445	0.44375816
34	0xbf1197d9	-0.56872326
35	0x3e1db5a3	0.1540132
36	0x3f0fc547	0.56160396
37	0x3f8de229	1.1084644
38	0x3f30bffd	0.6904295
39	0x3fd2e6b4	1.6476655
40	0xbe49bbae	-0.197005
41	0xbe2fb1be	-0.17157647
42	0x3ff6445f	1.9239615
43	0xbd589e88	-0.052885562
44	0x3f85f7c5	1.0466238
45	0x3e848542	0.25882918
46	0xbe1a9a58	-0.1509794
47	0x3f40072a	0.7501093
48	0xbf071096	-0.52759683
49	0xbee114b2	-0.43961102
50	0x3f2e86e5	0.6817458
51	0xbd347f83	-0.044066917
52	0x3f9556b6	1.1667087
53	0xbee67d9f	-0.45017716
54	0x3e1a31ad	0.15058012
55	0x3fb732c1	1.4312364
56	0xbd8494b2	-0.06473674
57	0xbdc680e3	-0.09692552
58	0x3f0d4dfe	0.5519713
59	0x3ff8ff7b	1.9452966
60	0x3f229980	0.6351547
61	0x3dccd2ee	0.10001169
62	0x3fed9717	1.8561734
63	0xbdb63112	-0.08896078
64	0xbe80f716	-0.25188512
65	0xbe1eb0e0	-0.1549716
66	0xbf772e02	-0.9655458
67	0x3d3477de	0.044059627
68	0xbe8fa11c	-0.28052604
69	0xbf930b38	-1.1487799
70	0x3fc7b856	1.560313
71	0xbdb80766	-0.08985786
72	0xbddeca1f	-0.10878395
73	0x3dedc5b2	0.11609973
74	0x3d858470	0.06519401
75	0xbe1254b4	-0.14290124
76	0xbc4a8f8c	-0.012363326
77	0x3ec9eecc	0.3944
78	0x3fb09eec	1.3798499
79	0xbf985bfa	-1.1903069
80	0x3f969cf1	1.1766645
81	0x3f26a502	0.6509553
82	0xbe5fd9b3	-0.2186039
83	0xbdf734db	-0.12070628
84	0xbe46ca61	-0.19413139
85	0xbf6e4b91	-0.93084055
86	0x3f85ea55	1.0462137
87	0x3ffcfb61	1.9764215
88	0x3e3d2dae	0.18474457
89	0x3ee378f6	0.44428223
90	0xbcc94a8f	-0.024571685
91	0x3e849265	0.2589294
92	0x3f0cb703	0.54966754
93	0x3fa59ab1	1.2937833
94	0xbc89f6a8	-0.016841248
95	0xbf0675f1	-0.52523714
96	0x3f2a7c40	0.6659584
97	0x3d666e27	0.056257393
98	0x3fa90fb5	1.3207918
99	0xba36aa84	-0.0006968158
100	0xbf8d170c	-1.1022658
101	0xbf6416d7	-0.8909735
102	0x3f78eb0c	0.97233653
103	0x3f98564f	1.1901339
104	0x3eb79805	0.3585817
105	0x3fd6cdf2	1.67816
106	0xbf5ba4d9	-0.8579841
107	0xbcac16c7	-0.021006955
108	0xbf63eede	-0.8903636
109	0x3e498976	0.19681343
110	0x3f05e2ec	0.5229938
111	0xbf02ae24	-0.5104697
112	0x3fe885f7	1.8165883
113	0xbe77b635	-0.241906
114	0x3fa15aaf	1.26058
115	0x3e2196cd	0.15780182
116	0x3fabcc64	1.342175
117	0x3e699ee1	0.22814514
118	0xbf0e27d5	-0.5552953
119	0xbfc9a519	-1.5753509
120	0x3e9a90c4	0.30188572
121	0x3f7e147e	0.9925002
122	0xbfad2e16	-1.3529689
123	0x3e742bf5	0.23844893
124	0xbf69d6f5	-0.91343623
125	0xbf63001f	-0.8867206
126	0x3ee2708d	0.44226494
127	0x3f061f34	0.5239136
128	0x3f46e430	0.77691936
129	0xbeeb4bb7	-0.45956203
130	0x3f900f6e	1.1254709
131	0x3f7a0bf5	0.97674495
132	0xbf93edd8	-1.1556959
133	0x3f1990d0	0.5998659
134	0x3d24c4f2	0.040226884
135	0xbf12018a	-0.570336
136	0x3da21295	0.079137005
137	0xbdddf8c7	-0.10838466
138	0xbdfcbcb7	-0.12340682
139	0xbe0e85bc	-0.13918203
140	0x3e09aebd	0.13445564
141	0x3f916cec	1.1361365
142	0xbe8ff591	-0.2811704
143	0xbf0a8b7f	-0.54119104
144	0xbf800756	-1.0002239
145	0xbfca7f2d	-1.5820061
146	0x3f4a16c1	0.7894097
147	0x3f4c40c4	0.79786325
148	0x3db8d164	0.09024313
149	0x3d2e6a5d	0.042581905
150	0xbdd308cc	-0.10304412
151	0xbf78d7e7	-0.9720444
152	0x3fa2df9e	1.2724493
153	0xbf0b81b6	-0.544948
154	0xbde07cff	-0.10961341
155	0xbd46739d	-0.0484501
156	0x3fdcd8ae	1.7253625
157	0x3ef1fac0	0.4726162
158	0xbec98115	-0.39356294
159	0xbe365cf7	-0.17808901
160	0x3cc45a32	0.02396879
161	0x3e32c1b3	0.17456703
162	0x3eebb539	0.460367
163	0xbe25a850	-0.16177487
164	0xbddc598b	-0.107592665
165	0x3e5929bc	0.21207327
166	0xbf8ef3ac	-1.1168113
167	0x3f3efb1b	0.74601907
168	0x3efa2df6	0.4886319
169	0x3f670b10	0.90251255
170	0x3fd0d23b	1.6314157
171	0xbf0f14e7	-0.5589127
172	0xbf39bad4	-0.725507
173	0x3feb13b1	1.8365384
174	0x3ef5b655	0.4799067
175	0xc0072b33	-2.1120117
176	0xbfda809f	-1.7070502
177	0x3eead061	0.45862105
178	0x3e139f39	0.14416207
179	0xbe02c796	-0.12771448
180	0x400c82da	2.1954865
181	0xbdfe6a04	-0.124225646
182	0x3f7bb42c	0.98321795
183	0x3e11b57d	0.14229389
184	0x3ed289d9	0.41120794
185	0x3ce9e421	0.028551163
186	0x3ec1c242	0.3784352
187	0xbe9d1c57	-0.30685684
188	0x3f17daab	0.59318036
189	0x3e09622b	0.13416354
190	0x3fb1bc43	1.3885578
191	0xbe28f570	-0.16499877
192	0xbf8fd610	-1.1237202
193	0xbe80e5da	-0.25175363
194	0x3fd13db0	1.634695
195	0x3e876049	0.26440647
196	0x3ff48aa6	1.9104812
197	0xbf9546ff	-1.1662291
198	0x3ebb43f4	0.36575282
199	0x3f7fe0f4	0.99952626
200	0x3f8dad0b	1.1068434
201	0x3eb414e3	0.35172185
202	0x3f53a1ed	0.82668954
203	0x3e95b5eb	0.29240355
204	0x3f9bf837	1.2185124
205	0x3fa1ccbb	1.2640604
206	0x3f288875	0.65833217
207	0x3f453168	0.7702851
208	0xbf9ecc34	-1.2406068
209	0xbf223fe0	-0.63378716
210	0xbf99ba9e	-1.2010076
211	0xbf47adbf	-0.7799949
212	0x3f8e6a03	1.1126102
213	0x3f94369d	1.1579167
214	0xbf24a353	-0.64311713
215	0xbf1e0f33	-0.6174194
216	0x3fbfaf6c	1.497541
217	0xbf50434b	-0.8135268
218	0x3f878a2f	1.0589045
219	0xbd5e8dd1	-0.054334465
220	0x3ff7ef7e	1.9369962
221	0x3c7d25dd	0.015450922
222	0xbed063af	-0.40701053
223	0x3f9ce8e1	1.2258569
224	0xbec79511	-0.38980916
225	0x3c820b5e	0.01587456
226	0x3f64832b	0.89262646
227	0x3f3074ef	0.68928427
228	0x3f165646	0.5872539
229	0x3e407aab	0.18796794
230	0xbf45b838	-0.7723422
231	0x3c4bc008	0.012435921
232	0x3e9318cb	0.28729853
233	0x3f178fa6	0.59203565
234	0xbf786197	-0.9702391
235	0x3f9b7383	1.2144626
236	0xbee0d75e	-0.43914312
237	0xbea9d282	-0.33168417
238	0xbdeaeefc	-0.11471364
239	0xbf867a38	-1.0506048
240	0xbed2c6d2	-0.41167313
241	0x3fdfeb47	1.7493676
242	0x3faefd9e	1.3671148
243	0x3f3f7b85	0.7479785
244	0xbe33d651	-0.17562224
245	0x3fa9b276	1.3257587
246	0x3f955d87	1.1669167
247	0xbf2d02ca	-0.6758238
248	0x3fbcf80b	1.4763197
249	0xbf2903e5	-0.6602157
250	0x3f79f046	0.97632253
251	0x3fa3a751	1.2785436
252	0x3e57a9d1	0.21060874
253	0x3f51268a	0.8169943
254	0x3ed1c54a	0.40970832
255	0x3e062135	0.13098605

l1.bias f4 [8]
0	0x3ff9e629	1.9523364
1	0x402395d7	2.5560205
2	0x3f2c23e1	0.67242247
3	0x3eabd159	0.33558157
4	0x3fd20f7f	1.6410979
5	0x401653c6	2.3488631
6	0x3f2273ab	0.63457745
7	0x400c231a	2.1896424

l2.weight f4 [8, 8]
0	0xbf1c96db	-0.6116769
1	0x3fb493e5	1.4107634
2	0x3f8ec590	1.1154041
3	0x3fd96458	1.6983747
4	0x40570bb2	3.3600888
5	0xbfcf0ae2	-1.6175196
6	0xbe0f0d78	-0.13969982
7	0x4046f39a	3.1086183
8	0xbea5888e	-0.32330745
9	0xbe85c45c	-0.26126373
10	0xbdef51e4	-0.11685541
11	0xbea79b16	-0.3273551
12	0x3d028973	0.031869363
13	0x3c18e2ac	0.009331387
14	0xbe603039	-0.21893395
15	0x3dd61250	0.104527116
16	0x401b9321	2.430855
17	0x4004d578	2.075529
18	0x3f09ae24	0.5378134
19	0xbff5d176	-1.9204547
20	0xbfb923e5	-1.4464079
21	0x40314dba	2.770369
22	0xc031f4e3	-2.7805717
23	0x3ff7e40d	1.936647
24	0x4081e780	4.0595093
25	0xc01236fb	-2.2846057
26	0x40462820	3.096199
27	0x4016bb00	2.3551636
28	0x3e901f90	0.2814908
29	0x400e6e2f	2.225475
30	0x402c2ab6	2.6901069
31	0x3ff88611	1.9415914
32	0x3fe8302d	1.8139702
33	0x408cc6fc	4.39929
34	0xbd13b19b	-0.03605805
35	0xbe3ffb60	-0.18748236
36	0x405f2c38	3.487074
37	0x403998b6	2.8999457
38	0x409dfa6e	4.93682
39	0xbfda3522	-1.7047465
40	0x3e00c034	0.1257332
41	0xbdaff784	-0.08592132
42	0xbe6d09de	-0.23148295
43	0xbe79059e	-0.24318549
44	0xbb920d00	-0.004457116
45	0xbe90a9da	-0.28254586
46	0x3d3b9790	0.04579884
47	0xbe8e2f22	-0.27770334
48	0xbfdf3ff8	-1.7441397
49	0x3f8bbe43	1.0917438
50	0x3e1eef1a	0.15520898
51	0x400ee2d0	2.2325935
52	0xbf83370a	-1.0251172
53	0x40110dd2	2.2664685
54	0x3f744ef1	0.95432955
55	0x40114948	2.2700977
56	0x3f1fb855	0.62390643
57	0x3f995cc4	1.1981435
58	0xc06db8a2	-3.714394
59	0xbeab5936	-0.334665
60	0x405d41c6	3.4571395
61	0x3fad1436	1.3521793
62	0xbfb1139c	-1.3834109
63	0x3fcdfa21	1.6091958

l2.bias f4 [8]
0	0x3f68d389	0.9094778
1	0xbe8b0c21	-0.2715769
2	0x4013194e	2.2984195
3	0xbea1a9ef	-0.31574962
4	0x3f18aa29	0.59634644
5	0xbeb119e1	-0.34590057
6	0xbeb270a5	-0.34851566
7	0x4000aa8c	2.0104094

l3.weight f4 [80, 8]
0	0x3f09fb22	0.53898823
1	0x3c2e3810	0.0106334835
2	0xbed27b5c	-0.4110974
3	0xbfbc8dcd	-1.4730774
4	0xbf5cdcc4	-0.8627436
5	0xbe8db1ba	-0.27674657
6	0xc000c6bb	-2.0121295
7	0x3ececc20	0.4039011
8	0x3e81bcac	0.25339258
9	0x3e08b66d	0.1335084
10	0xbf892171	-1.071333
11	0x3ced4373	0.028962826
12	0xc0808eb9	-4.017422
13	0x3e4587d6	0.19290099
14	0x3d52e51e	0.051488034
15	0xbd5876f4	-0.052847818
16	0xbf8c16a5	-1.094441
17	0x3e974c45	0.29550377
18	0x3eb94bf2	0.36190754
19	0x3e9d0a0c	0.30671728
20	0xbf07bcfb	-0.53022736
21	0x3d010d90	0.031507075
22	0xbf4cdd78	-0.80025434
23	0xc06681f2	-3.6016812
24	0xbf04d836	-0.5189241
25	0xbe51dddf	-0.20494793
26	0x3ec8f5dc	0.39250076
27	0x3e140939	0.14456643
28	0xc04e4600	-3.2230225
29	0xbe635023	-0.22198538
30	0x3e8cbdff	0.27488706
31	0xc0103b71	-2.253628
32	0xbd5c842d	-0.05383699
33	0xbd94a1b1	-0.07257403
34	0xbf4d3db8	-0.801723
35	0xbfc272d8	-1.5191298
36	0x3e1c7320	0.15278292
37	0x3eaac7c9	0.3335555
38	0xbf94c3ee	-1.1622293
39	0xbeac9fed	-0.33715764
40	0xbfa164b7	-1.2608861
41	0x3e8674d0	0.26260996
42	0xc04628cc	-3.09624
43	0xbe15cabe	-0.14628121
44	0x3f36461e	0.7120074
45	0x3e13b0aa	0.1442286
46	0xc02049aa	-2.504496
47	0x3e0796b7	0.13241087
48	0x3e4693e3	0.19392352
49	0x3d712790	0.05887562
50	0x3ea4ba65	0.32173458
51	0xbfc1d984	-1.5144506
52	0xc024792b	-2.5698955
53	0xbe068fd2	-0.131408
54	0xbf0b03e6	-0.54302824
55	0x3f3aa65c	0.72910094
56	0xbfd1b4fb	-1.6383356
57	0xbeb867a3	-0.3601657
58	0xbe8d0d02	-0.27548987
59	0xbf201b85	-0.6254199
60	0x3e5b5792	0.21420124
61	0x3e21419a	0.15747681
62	0x3d9d9b38	0.07695621
63	0xc0162488	-2.3459797
64	0xbf986aac	-1.1907554
65	0xbe37ceeb	-0.17950027
66	0xbfa7aebc	-1.31002
67	0xbf3a246d	-0.7271183
68	0x3ec64879	0.38727167
69	0x3e74c976	0.23904976
70	0xbf2026de	-0.62559307
71	0xbf635939	-0.8880802
72	0xbf06879d	-0.5255068
73	0x3e777d72	0.24168947
74	0xc0362170	-2.8457909
75	0xbf518b21	-0.8185292
76	0x3e8d3814	0.27581847
77	0x3d2e3278	0.0425286
78	0xbeae2e8f	-0.34019896
79	0xbe29ff42	-0.1660128
80	0x3e71bc8b	0.2360708
81	0xbcdfab03	-0.027303224
82	0xc040d700	-3.0131226
83	0xc002d4b6	-2.0442328
84	0xbdd700cc	-0.10498199
85	0x3d264968	0.04059735
86	0xbe807d5e	-0.25095648
87	0x3f497e3a	0.7870823
88	0xc0093789	-2.1440146
89	0xbe929597	-0.28629753
90	0x3f4cfbea	0.8007189
91	0xbfc04b07	-1.5022897
92	0xbe867027	-0.2625744
93	0x3e262466	0.16224822
94	0xbf885065	-1.0649534
95	0x3ea858c2	0.32880217
96	0xbf08cdc3	-0.5343897
97	0xbda7a835	-0.0818638
98	0x3f51175d	0.81676275
99	0xbefcb1ec	-0.49354494
100	0xc04cf475	-3.2024205
101	0xbdb979a0	-0.09056401
102	0xbe2baf95	-0.16766198
103	0xbd9015fa	-0.07035442
104	0xbe1a10f2	-0.15045527
105	0xbe3833e8	-0.1798855
106	0x3dd00079	0.1015634
107	0xbec24ca1	-0.37949088
108	0xc06aebd2	-3.6706433
109	0xbdc4ff68	-0.096190274
110	0x3efb9e56	0.49144238
111	0xbf396e17	-0.7243361
112	0xbf258070	-0.64649105
113	0x3e8932e2	0.26796633
114	0xbef0ddd7	-0.4704425
115	0xbe2b66da	-0.16738454
116	0xbfcea9dd	-1.6145588
117	0x3e865601	0.2623749
118	0xbddb8b56	-0.107199356
119	0xbd3bfc4c	-0.045894906
120	0xc05ea4cd	-3.4788086
121	0x3e626ab7	0.22111021
122	0x3f32f64f	0.6990709
123	0xbecf7750	-0.40520716
124	0x3e0d0b0f	0.1377375
125	0xbe2c1975	-0.16806586
126	0xc069d29e	-3.65348
127	0x3ef0c737	0.4702699
128	0xbea7829e	-0.3271684
129	0xbc97434b	-0.018464705
130	0xbff16b17	-1.8860806
131	0xbe066bd4	-0.1312707
132	0x3c7127cd	0.014718962
133	0x3e82bead	0.255361
134	0xc0000bca	-2.0007195
135	0xbdbfc2b6	-0.0936331
136	0xbe40c4d1	-0.1882508
137	0x3dc0a51f	0.09406494
138	0xc020a53f	-2.5100858
139	0x3d9c03c8	0.07617909
140	0xbf2d6265	-0.67728263
141	0xbbdba8c0	-0.006703466
142	0xbe736797	-0.23769985
143	0xbf104685	-0.56357604
144	0x3f075768	0.52867746
145	0xbe8094d4	-0.25113547
146	0xc05631e7	-3.3467958
147	0xbf2ba779	-0.6705242
148	0xbf94af5d	-1.1616017
149	0x3debbeac	0.11510977
150	0xbeb7fce1	-0.3593512
151	0x3ef2c986	0.47419375
152	0x3dd9d92a	0.10637124
153	0x3e1aa53c	0.15102094
154	0xc0383a66	-2.8785644
155	0xbf0c5e95	-0.5483182
156	0x3e743b93	0.23850851
157	0x3dfd39f0	0.12364566
158	0xc04e30ce	-3.2217288
159	0x3f030a45	0.51187545
160	0xbb305101	-0.002690375
161	0x3e69926a	0.22809759
162	0xbfe7c9ab	-1.8108419
163	0xbebc21da	-0.36744577
164	0xbfbc6557	-1.4718426
165	0xbea59221	-0.3233805
166	0x3e87e111	0.265389
167	0xbe959f10	-0.29222918
168	0xc06abbb9	-3.6677077
169	0x3e8ffd16	0.28122777
170	0x3e89c8b4	0.26910937
171	0xbd8c0b16	-0.06838052
172	0x3f58204f	0.844243
173	0x3e87b4e7	0.26505205
174	0xc0457485	-3.0852368
175	0xbfaf504d	-1.3696381
176	0xbecf3b58	-0.40474963
177	0x3e8b063d	0.27153197
178	0xbf6f3828	-0.9344506
179	0x3f42b557	0.7605795
180	0xbdb34bea	-0.08754714
181	0xbdaa5e74	-0.08318797
182	0xc04f7e38	-3.2420788
183	0xc01c261f	-2.4398267
184	0xbdb690b0	-0.08914316
185	0xbea3b88b	-0.31976733
186	0xbfbdfbc8	-1.4842463
187	0x3f31b4e4	0.6941664
188	0xc02dae9a	-2.7137818
189	0xbe9015c1	-0.28141597
190	0x3e86349e	0.2621202
191	0xc03eb734	-2.9799318
192	0xbec33acf	-0.38130805
193	0x3ddf0ade	0.108907446
194	0xbedf8b2d	-0.4366087
195	0xbf6dc091	-0.9287196
196	0x3eac47a8	0.3364842
197	0x3ea9b6ad	0.33147183
198	0xc09f6b69	-4.9818616
199	0x3ebf3b4a	0.3734992
200	0xbd8fb083	-0.07016089
201	0xbe23a39c	-0.15980381
202	0xbf580067	-0.84375614
203	0xbef4bb6b	-0.4779924
204	0xbf511796	-0.81676614
205	0xbc268da0	-0.010165602
206	0xbeed8e18	-0.4639747
207	0xbf2483cf	-0.64263624
208	0xbff621a2	-1.9229014
209	0xbdef9c0f	-0.11699688
210	0x3f55c951	0.8351031
211	0x3e57d7ad	0.21078368
212	0xbfa1b78b	-1.2634138
213	0x3eac7aa5	0.3368732
214	0xbfb32bcb	-1.399774
215	0xbf32b975	-0.69814235
216	0xc03535c1	-2.8314059
217	0x3d889d03	0.066705726
218	0x3e156ab0	0.1459148
219	0xbef8786f	-0.48529384
220	0xbf1aa813	-0.6041271
221	0xbe41423d	-0.18872924
222	0x3e0483c7	0.12940894
223	0xbe5fb206	-0.21845254
224	0xc003c762	-2.0590444
225	0x3d159e2c	0.036527798
226	0xbf17f95b	-0.5936486
227	0x3df1c0fb	0.11804386
228	0x3e23f3d6	0.16010985
229	0xbe52899d	-0.20560308
230	0xbf8a1624	-1.0788007
231	0xbfc083fe	-1.5040281
232	0xc052fae0	-3.2965622
233	0xbddad55a	-0.10685225
234	0xbd8ed225	-0.06973676
235	0xbf5063ed	-0.81402475
236	0x3ec5249b	0.3850449
237	0xbea91d18	-0.3303001
238	0xbf847dc9	-1.0350887
239	0xbe01a362	-0.12659982
240	0xc07234dc	-3.7844763
241	0x3e6a64e7	0.22890054
242	0x3f3925e1	0.72323424
243	0xbd502ec0	-0.050825834
244	0x3d09ab5c	0.033610687
245	0x3d48f360	0.049060225
246	0xbf302da4	-0.6881964
247	0xc00bb014	-2.182622
248	0xbebac153	-0.3647562
249	0x3e8ebf3d	0.27880278
250	0xc00a63f7	-2.1623514
251	0xc04d515d	-3.208091
252	0x3f230097	0.63672775
253	0xbe44b797	-0.19210659
254	0x3d5b1a9c	0.053492174
255	0xbcf8822c	-0.030335508

l3.bias f4 [80]
0	0x3e866c80	0.26254654
1	0x3e922f33	0.28551635
2	0xbd160473	-0.036625337
3	0xbe7a2142	-0.2442675
4	0x3ef4a3f1	0.47781327
5	0xbe510790	-0.20413041
6	0x3f06fea9	0.5273233
7	0xbdf36ba6	-0.11885767
8	0xbe8e13e2	-0.27749544
9	0xbeed6acd	-0.46370545
10	0x3e67cac3	0.22635941
11	0xbdbe376f	-0.09287917
12	0xbeef9300	-0.4679184
13	0xbf5fd116	-0.87428415
14	0x3de97365	0.11398963
15	0xbd864f6f	-0.065581195
16	0xbe258e10	-0.16167474
17	0xbe872c23	-0.2640086
18	0xbd194c89	-0.037426505
19	0x3df39a9b	0.11894723
20	0x3e084b96	0.13310084
21	0x3eaa0954	0.33210242
22	0xbdb4aa10	-0.08821499
23	0x3e664ae6	0.22489509
24	0xbea35a20	-0.31904697
25	0x3c410e81	0.011783243
26	0x3f3d26ca	0.7388731
27	0xbebb0592	-0.36527687
28	0xbf066d73	-0.52510756
29	0xbf3b1a2a	-0.730868
30	0xbe33de2f	-0.17565225
31	0xbe136f4d	-0.14397927
32	0xbe7dd0a6	-0.24786624
33	0x3d6b0929	0.057381783
34	0x3e2a6c79	0.16642942
35	0x3ced7e35	0.028990844
36	0x3b05e066	0.0020427941
37	0xbe8d0aa8	-0.27547193
38	0xbe8f2d3e	-0.27964205
39	0xbe4e7bb0	-0.2016437
40	0x3e0d86af	0.13820909
41	0xbe931bf1	-0.28732255
42	0xbda9e073	-0.082947634
43	0xbe0e7e67	-0.13915406
44	0x3ee40c97	0.44540855
45	0x3c01c9b1	0.007921622
46	0x3ee42c61	0.44565108
47	0x3d1012ef	0.035174306
48	0x3ea24910	0.31696367
49	0x3f0ecd7f	0.5578231
50	0xbed76e3c	-0.4207629
51	0x3e1762a0	0.14783716
52	0xbe3753b8	-0.1790303
53	0x3e127c1c	0.14305156
54	0xbf08bff1	-0.5341788
55	0xbe31ed72	-0.17375734
56	0xbeaeb814	-0.34124815
57	0xbf0013a5	-0.50029975
58	0xbed376ff	-0.41301724
59	0xbdb21fca	-0.086974695
60	0xbedad940	-0.42743874
61	0xbe85dcab	-0.2614492
62	0xbe528104	-0.20557028
63	0x3f249949	0.64296395
64	0xbe0499cb	-0.12949292
65	0x3d997ded	0.074947216
66	0xbe291d65	-0.1651512
67	0xbe0d5c58	-0.13804758
68	0x3d90652e	0.070505485
69	0xbf388e62	-0.7209226
70	0xbf22cca3	-0.635935
71	0x3da104e1	0.07862259
72	0xbf0fafeb	-0.56127805
73	0x3edd3844	0.4320699
74	0xbec8c5e0	-0.39213467
75	0x3eefe8b7	0.46857235
76	0x3f3c33e1	0.7351666
77	0x3e23c274	0.15992147
78	0x3e3d5895	0.18490823
79	0xbcde80ba	-0.027160991
